[net]
# Testing
#batch=1
#subdivisions=1
# Training
batch=64
subdivisions=1
width=224
height=224
channels=3
momentum=0.9
decay=0.0005
angle=0
saturation = 1.5
exposure = 1.5
hue=.1

learning_rate=0.001
burn_in=6000
max_batches = 340000
policy=steps
steps=270000
scales=.1


[convolutional]
batch_normalize=1
filters=32
size=3
stride=2
pad=1
activation=relu

[convolutional]
batch_normalize=1
filters=64
size=3
stride=2
pad=1
activation=relu

[convolutional]
batch_normalize=1
filters=64
size=3
stride=1
pad=1
activation=relu

[route]
layers=-1

[convolutional]
batch_normalize=1
filters=32
size=3
stride=1
pad=1
activation=relu

[convolutional]
batch_normalize=1
filters=32
size=3
stride=1
pad=1
activation=relu

[route]
layers = -1,-2

[convolutional]
batch_normalize=1
filters=64
size=1
stride=1
pad=1
activation=relu

[route]
layers = -6,-1

[maxpool]
size=2
stride=2

[convolutional]
batch_normalize=1
filters=128
size=3
stride=1
pad=1
activation=relu

[route]
layers=-1

[convolutional]
batch_normalize=1
filters=64
size=3
stride=1
pad=1
activation=relu

[convolutional]
batch_normalize=1
filters=64
size=3
stride=1
pad=1
activation=relu

[route]
layers = -1,-2

[convolutional]
batch_normalize=1
filters=128
size=1
stride=1
pad=1
activation=relu

[route]
layers = -6,-1

[maxpool]
size=2
stride=2

[convolutional]
batch_normalize=1
filters=256
size=3
stride=1
pad=1
activation=relu

[route]
layers=-1

[convolutional]
batch_normalize=1
filters=128
size=3
stride=1
pad=1
activation=relu

[convolutional]
batch_normalize=1
filters=128
size=3
stride=1
pad=1
activation=relu

[route]
layers = -1,-2

[convolutional]
batch_normalize=1
filters=256
size=1
stride=1
pad=1
activation=relu

[route]
layers = -6,-1

[maxpool]
size=2
stride=2

[convolutional]
batch_normalize=1
filters=512
size=3
stride=1
pad=1
activation=relu

##################################

[convolutional]
batch_normalize=1
filters=256
size=1
stride=1
pad=1
activation=relu

[convolutional]
batch_normalize=1
filters=512
size=3
stride=1
pad=1
activation=relu

[convolutional]
size=1
stride=1
pad=1
filters=231
activation=linear



[yolo]
mask = 6,7,8
anchors = 17, 146,  36, 83,  22, 173,  24, 169,  24, 169,  24, 169,  26, 169,  37, 121,  31, 173
classes=72
num=9
jitter=.3
scale_x_y = 1.05
cls_normalizer=1.0
iou_normalizer=0.07
iou_loss=ciou
ignore_thresh = .7
truth_thresh = 1
random=0
resize=1.5
nms_kind=greedynms
beta_nms=0.6

[route]
layers = -4

[convolutional]
batch_normalize=1
filters=128
size=1
stride=1
pad=1
activation=relu

[upsample]
stride=2

[route]
layers = -1, 23

[convolutional]
batch_normalize=1
filters=256
size=3
stride=1
pad=1
activation=relu

[convolutional]
size=1
stride=1
pad=1
filters=231
activation=linear



[yolo]
mask = 3,4,5
anchors = 17, 146,  36, 83,  22, 173,  24, 169,  24, 169,  24, 169,  26, 169,  37, 121,  31, 173
classes=72
num=9
jitter=.3
scale_x_y = 1.05
cls_normalizer=1.0
iou_normalizer=0.07
iou_loss=ciou
ignore_thresh = .7
truth_thresh = 1
random=0
resize=1.5
nms_kind=greedynms
beta_nms=0.6

[route]
layers = -3

[convolutional]
batch_normalize=1
filters=64
size=1
stride=1
pad=1
activation=relu

[upsample]
stride=2

[route]
layers = -1, 15

[convolutional]
batch_normalize=1
filters=128
size=3
stride=1
pad=1
activation=relu

[convolutional]
size=1
stride=1
pad=1
filters=231
activation=linear



[yolo]
mask = 0,1,2
anchors = 17, 146,  36, 83,  22, 173,  24, 169,  24, 169,  24, 169,  26, 169,  37, 121,  31, 173
classes=72
num=9
jitter=.3
scale_x_y = 1.05
cls_normalizer=1.0
iou_normalizer=0.07
iou_loss=ciou
ignore_thresh = .7
truth_thresh = 1
random=0
resize=1.5
nms_kind=greedynms
beta_nms=0.6
